…
  0%|          | 0/12000 [00:00<?, ?it/s]/nfs/stak/users/floraj/.local/lib/python3.10/site-packages/torch/functional.py:504: UserWarning: torch.meshgrid: in an upcoming release, it will be required to pass the indexing argument. (Triggered internally at ../aten/src/ATen/native/TensorShape.cpp:3190.)
  return _VF.meshgrid(tensors, **kwargs)  # type: ignore[attr-defined]
 44%|████▍     | 5263/12000 [00:10<00:12, 526.22it/s] 94%|█████████▍| 11272/12000 [00:20<00:01, 570.12it/s]100%|██████████| 12000/12000 [00:21<00:00, 566.30it/s]
Done! Took 00:00:21.65
GraphGymModule(
  (model): RPETransformerModel(
    (encoder): FeatureEncoder(
      (node_encoder): Concat2NodeEncoder(
        (encoder1): TypeDictNodeEncoder(
          (encoder): Embedding(28, 80)
        )
        (encoder2): RPETransformerEncoder(
          (0): BiasEncoder()
          (1): NodeEncoder(
            (in_degree_encoder): Embedding(64, 80)
            (out_degree_encoder): Embedding(64, 80)
            (input_dropout): Dropout(p=0.1, inplace=False)
          )
        )
      )
    )
    (layers): Sequential(
      (0): RPETransformerLayer(
        (attention): MultiHeadAttentionLayer(
          (dropout): Dropout(p=0.1, inplace=False)
          (Q): Linear(in_features=80, out_features=80, bias=True)
          (K): Linear(in_features=80, out_features=80, bias=True)
          (V): Linear(in_features=80, out_features=80, bias=True)
          (fc_out): Linear(in_features=80, out_features=80, bias=True)
        )
        (add_bias_encoder): RPEEncoderLayer(
          (gbf): GaussianLayer(
            (means): Embedding(1, 16)
            (stds): Embedding(1, 16)
          )
          (mlp): NonLinear(
            (layer1): Linear(in_features=16, out_features=16, bias=True)
            (layer2): Linear(in_features=16, out_features=8, bias=True)
          )
        )
        (mult_bias_encoder): RPEEncoderLayer(
          (gbf): GaussianLayer(
            (means): Embedding(1, 16)
            (stds): Embedding(1, 16)
          )
          (mlp): NonLinear(
            (layer1): Linear(in_features=16, out_features=16, bias=True)
            (layer2): Linear(in_features=16, out_features=8, bias=True)
          )
        )
        (input_norm): LayerNorm((80,), eps=1e-05, elementwise_affine=True)
        (dropout): Dropout(p=0.0, inplace=False)
        (mlp): Sequential(
          (0): LayerNorm((80,), eps=1e-05, elementwise_affine=True)
          (1): Linear(in_features=80, out_features=80, bias=True)
          (2): GELU(approximate='none')
          (3): Dropout(p=0.1, inplace=False)
          (4): Linear(in_features=80, out_features=80, bias=True)
          (5): Dropout(p=0.0, inplace=False)
        )
      )
      (1): RPETransformerLayer(
        (attention): MultiHeadAttentionLayer(
          (dropout): Dropout(p=0.1, inplace=False)
          (Q): Linear(in_features=80, out_features=80, bias=True)
          (K): Linear(in_features=80, out_features=80, bias=True)
          (V): Linear(in_features=80, out_features=80, bias=True)
          (fc_out): Linear(in_features=80, out_features=80, bias=True)
        )
        (add_bias_encoder): RPEEncoderLayer(
          (gbf): GaussianLayer(
            (means): Embedding(1, 16)
            (stds): Embedding(1, 16)
          )
          (mlp): NonLinear(
            (layer1): Linear(in_features=16, out_features=16, bias=True)
            (layer2): Linear(in_features=16, out_features=8, bias=True)
          )
        )
        (mult_bias_encoder): RPEEncoderLayer(
          (gbf): GaussianLayer(
            (means): Embedding(1, 16)
            (stds): Embedding(1, 16)
          )
          (mlp): NonLinear(
            (layer1): Linear(in_features=16, out_features=16, bias=True)
            (layer2): Linear(in_features=16, out_features=8, bias=True)
          )
        )
        (input_norm): LayerNorm((80,), eps=1e-05, elementwise_affine=True)
        (dropout): Dropout(p=0.0, inplace=False)
        (mlp): Sequential(
          (0): LayerNorm((80,), eps=1e-05, elementwise_affine=True)
          (1): Linear(in_features=80, out_features=80, bias=True)
          (2): GELU(approximate='none')
          (3): Dropout(p=0.1, inplace=False)
          (4): Linear(in_features=80, out_features=80, bias=True)
          (5): Dropout(p=0.0, inplace=False)
        )
      )
      (2): RPETransformerLayer(
        (attention): MultiHeadAttentionLayer(
          (dropout): Dropout(p=0.1, inplace=False)
          (Q): Linear(in_features=80, out_features=80, bias=True)
          (K): Linear(in_features=80, out_features=80, bias=True)
          (V): Linear(in_features=80, out_features=80, bias=True)
          (fc_out): Linear(in_features=80, out_features=80, bias=True)
        )
        (add_bias_encoder): RPEEncoderLayer(
          (gbf): GaussianLayer(
            (means): Embedding(1, 16)
            (stds): Embedding(1, 16)
          )
          (mlp): NonLinear(
            (layer1): Linear(in_features=16, out_features=16, bias=True)
            (layer2): Linear(in_features=16, out_features=8, bias=True)
          )
        )
        (mult_bias_encoder): RPEEncoderLayer(
          (gbf): GaussianLayer(
            (means): Embedding(1, 16)
            (stds): Embedding(1, 16)
          )
          (mlp): NonLinear(
            (layer1): Linear(in_features=16, out_features=16, bias=True)
            (layer2): Linear(in_features=16, out_features=8, bias=True)
          )
        )
        (input_norm): LayerNorm((80,), eps=1e-05, elementwise_affine=True)
        (dropout): Dropout(p=0.0, inplace=False)
        (mlp): Sequential(
          (0): LayerNorm((80,), eps=1e-05, elementwise_affine=True)
          (1): Linear(in_features=80, out_features=80, bias=True)
          (2): GELU(approximate='none')
          (3): Dropout(p=0.1, inplace=False)
          (4): Linear(in_features=80, out_features=80, bias=True)
          (5): Dropout(p=0.0, inplace=False)
        )
      )
      (3): RPETransformerLayer(
        (attention): MultiHeadAttentionLayer(
          (dropout): Dropout(p=0.1, inplace=False)
          (Q): Linear(in_features=80, out_features=80, bias=True)
          (K): Linear(in_features=80, out_features=80, bias=True)
          (V): Linear(in_features=80, out_features=80, bias=True)
          (fc_out): Linear(in_features=80, out_features=80, bias=True)
        )
        (add_bias_encoder): RPEEncoderLayer(
          (gbf): GaussianLayer(
            (means): Embedding(1, 16)
            (stds): Embedding(1, 16)
          )
          (mlp): NonLinear(
            (layer1): Linear(in_features=16, out_features=16, bias=True)
            (layer2): Linear(in_features=16, out_features=8, bias=True)
          )
        )
        (mult_bias_encoder): RPEEncoderLayer(
          (gbf): GaussianLayer(
            (means): Embedding(1, 16)
            (stds): Embedding(1, 16)
          )
          (mlp): NonLinear(
            (layer1): Linear(in_features=16, out_features=16, bias=True)
            (layer2): Linear(in_features=16, out_features=8, bias=True)
          )
        )
        (input_norm): LayerNorm((80,), eps=1e-05, elementwise_affine=True)
        (dropout): Dropout(p=0.0, inplace=False)
        (mlp): Sequential(
          (0): LayerNorm((80,), eps=1e-05, elementwise_affine=True)
          (1): Linear(in_features=80, out_features=80, bias=True)
          (2): GELU(approximate='none')
          (3): Dropout(p=0.1, inplace=False)
          (4): Linear(in_features=80, out_features=80, bias=True)
          (5): Dropout(p=0.0, inplace=False)
        )
      )
      (4): RPETransformerLayer(
        (attention): MultiHeadAttentionLayer(
          (dropout): Dropout(p=0.1, inplace=False)
          (Q): Linear(in_features=80, out_features=80, bias=True)
          (K): Linear(in_features=80, out_features=80, bias=True)
          (V): Linear(in_features=80, out_features=80, bias=True)
          (fc_out): Linear(in_features=80, out_features=80, bias=True)
        )
        (add_bias_encoder): RPEEncoderLayer(
          (gbf): GaussianLayer(
            (means): Embedding(1, 16)
            (stds): Embedding(1, 16)
          )
          (mlp): NonLinear(
            (layer1): Linear(in_features=16, out_features=16, bias=True)
            (layer2): Linear(in_features=16, out_features=8, bias=True)
          )
        )
        (mult_bias_encoder): RPEEncoderLayer(
          (gbf): GaussianLayer(
            (means): Embedding(1, 16)
            (stds): Embedding(1, 16)
          )
          (mlp): NonLinear(
            (layer1): Linear(in_features=16, out_features=16, bias=True)
            (layer2): Linear(in_features=16, out_features=8, bias=True)
          )
        )
        (input_norm): LayerNorm((80,), eps=1e-05, elementwise_affine=True)
        (dropout): Dropout(p=0.0, inplace=False)
        (mlp): Sequential(
          (0): LayerNorm((80,), eps=1e-05, elementwise_affine=True)
          (1): Linear(in_features=80, out_features=80, bias=True)
          (2): GELU(approximate='none')
          (3): Dropout(p=0.1, inplace=False)
          (4): Linear(in_features=80, out_features=80, bias=True)
          (5): Dropout(p=0.0, inplace=False)
        )
      )
      (5): RPETransformerLayer(
        (attention): MultiHeadAttentionLayer(
          (dropout): Dropout(p=0.1, inplace=False)
          (Q): Linear(in_features=80, out_features=80, bias=True)
          (K): Linear(in_features=80, out_features=80, bias=True)
          (V): Linear(in_features=80, out_features=80, bias=True)
          (fc_out): Linear(in_features=80, out_features=80, bias=True)
        )
        (add_bias_encoder): RPEEncoderLayer(
          (gbf): GaussianLayer(
            (means): Embedding(1, 16)
            (stds): Embedding(1, 16)
          )
          (mlp): NonLinear(
            (layer1): Linear(in_features=16, out_features=16, bias=True)
            (layer2): Linear(in_features=16, out_features=8, bias=True)
          )
        )
        (mult_bias_encoder): RPEEncoderLayer(
          (gbf): GaussianLayer(
            (means): Embedding(1, 16)
            (stds): Embedding(1, 16)
          )
          (mlp): NonLinear(
            (layer1): Linear(in_features=16, out_features=16, bias=True)
            (layer2): Linear(in_features=16, out_features=8, bias=True)
          )
        )
        (input_norm): LayerNorm((80,), eps=1e-05, elementwise_affine=True)
        (dropout): Dropout(p=0.0, inplace=False)
        (mlp): Sequential(
          (0): LayerNorm((80,), eps=1e-05, elementwise_affine=True)
          (1): Linear(in_features=80, out_features=80, bias=True)
          (2): GELU(approximate='none')
          (3): Dropout(p=0.1, inplace=False)
          (4): Linear(in_features=80, out_features=80, bias=True)
          (5): Dropout(p=0.0, inplace=False)
        )
      )
      (6): RPETransformerLayer(
        (attention): MultiHeadAttentionLayer(
          (dropout): Dropout(p=0.1, inplace=False)
          (Q): Linear(in_features=80, out_features=80, bias=True)
          (K): Linear(in_features=80, out_features=80, bias=True)
          (V): Linear(in_features=80, out_features=80, bias=True)
          (fc_out): Linear(in_features=80, out_features=80, bias=True)
        )
        (add_bias_encoder): RPEEncoderLayer(
          (gbf): GaussianLayer(
            (means): Embedding(1, 16)
            (stds): Embedding(1, 16)
          )
          (mlp): NonLinear(
            (layer1): Linear(in_features=16, out_features=16, bias=True)
            (layer2): Linear(in_features=16, out_features=8, bias=True)
          )
        )
        (mult_bias_encoder): RPEEncoderLayer(
          (gbf): GaussianLayer(
            (means): Embedding(1, 16)
            (stds): Embedding(1, 16)
          )
          (mlp): NonLinear(
            (layer1): Linear(in_features=16, out_features=16, bias=True)
            (layer2): Linear(in_features=16, out_features=8, bias=True)
          )
        )
        (input_norm): LayerNorm((80,), eps=1e-05, elementwise_affine=True)
        (dropout): Dropout(p=0.0, inplace=False)
        (mlp): Sequential(
          (0): LayerNorm((80,), eps=1e-05, elementwise_affine=True)
          (1): Linear(in_features=80, out_features=80, bias=True)
          (2): GELU(approximate='none')
          (3): Dropout(p=0.1, inplace=False)
          (4): Linear(in_features=80, out_features=80, bias=True)
          (5): Dropout(p=0.0, inplace=False)
        )
      )
      (7): RPETransformerLayer(
        (attention): MultiHeadAttentionLayer(
          (dropout): Dropout(p=0.1, inplace=False)
          (Q): Linear(in_features=80, out_features=80, bias=True)
          (K): Linear(in_features=80, out_features=80, bias=True)
          (V): Linear(in_features=80, out_features=80, bias=True)
          (fc_out): Linear(in_features=80, out_features=80, bias=True)
        )
        (add_bias_encoder): RPEEncoderLayer(
          (gbf): GaussianLayer(
            (means): Embedding(1, 16)
            (stds): Embedding(1, 16)
          )
          (mlp): NonLinear(
            (layer1): Linear(in_features=16, out_features=16, bias=True)
            (layer2): Linear(in_features=16, out_features=8, bias=True)
          )
        )
        (mult_bias_encoder): RPEEncoderLayer(
          (gbf): GaussianLayer(
            (means): Embedding(1, 16)
            (stds): Embedding(1, 16)
          )
          (mlp): NonLinear(
            (layer1): Linear(in_features=16, out_features=16, bias=True)
            (layer2): Linear(in_features=16, out_features=8, bias=True)
          )
        )
        (input_norm): LayerNorm((80,), eps=1e-05, elementwise_affine=True)
        (dropout): Dropout(p=0.0, inplace=False)
        (mlp): Sequential(
          (0): LayerNorm((80,), eps=1e-05, elementwise_affine=True)
          (1): Linear(in_features=80, out_features=80, bias=True)
          (2): GELU(approximate='none')
          (3): Dropout(p=0.1, inplace=False)
          (4): Linear(in_features=80, out_features=80, bias=True)
          (5): Dropout(p=0.0, inplace=False)
        )
      )
      (8): RPETransformerLayer(
        (attention): MultiHeadAttentionLayer(
          (dropout): Dropout(p=0.1, inplace=False)
          (Q): Linear(in_features=80, out_features=80, bias=True)
          (K): Linear(in_features=80, out_features=80, bias=True)
          (V): Linear(in_features=80, out_features=80, bias=True)
          (fc_out): Linear(in_features=80, out_features=80, bias=True)
        )
        (add_bias_encoder): RPEEncoderLayer(
          (gbf): GaussianLayer(
            (means): Embedding(1, 16)
            (stds): Embedding(1, 16)
          )
          (mlp): NonLinear(
            (layer1): Linear(in_features=16, out_features=16, bias=True)
            (layer2): Linear(in_features=16, out_features=8, bias=True)
          )
        )
        (mult_bias_encoder): RPEEncoderLayer(
          (gbf): GaussianLayer(
            (means): Embedding(1, 16)
            (stds): Embedding(1, 16)
          )
          (mlp): NonLinear(
            (layer1): Linear(in_features=16, out_features=16, bias=True)
            (layer2): Linear(in_features=16, out_features=8, bias=True)
          )
        )
        (input_norm): LayerNorm((80,), eps=1e-05, elementwise_affine=True)
        (dropout): Dropout(p=0.0, inplace=False)
        (mlp): Sequential(
          (0): LayerNorm((80,), eps=1e-05, elementwise_affine=True)
          (1): Linear(in_features=80, out_features=80, bias=True)
          (2): GELU(approximate='none')
          (3): Dropout(p=0.1, inplace=False)
          (4): Linear(in_features=80, out_features=80, bias=True)
          (5): Dropout(p=0.0, inplace=False)
        )
      )
      (9): RPETransformerLayer(
        (attention): MultiHeadAttentionLayer(
          (dropout): Dropout(p=0.1, inplace=False)
          (Q): Linear(in_features=80, out_features=80, bias=True)
          (K): Linear(in_features=80, out_features=80, bias=True)
          (V): Linear(in_features=80, out_features=80, bias=True)
          (fc_out): Linear(in_features=80, out_features=80, bias=True)
        )
        (add_bias_encoder): RPEEncoderLayer(
          (gbf): GaussianLayer(
            (means): Embedding(1, 16)
            (stds): Embedding(1, 16)
          )
          (mlp): NonLinear(
            (layer1): Linear(in_features=16, out_features=16, bias=True)
            (layer2): Linear(in_features=16, out_features=8, bias=True)
          )
        )
        (mult_bias_encoder): RPEEncoderLayer(
          (gbf): GaussianLayer(
            (means): Embedding(1, 16)
            (stds): Embedding(1, 16)
          )
          (mlp): NonLinear(
            (layer1): Linear(in_features=16, out_features=16, bias=True)
            (layer2): Linear(in_features=16, out_features=8, bias=True)
          )
        )
        (input_norm): LayerNorm((80,), eps=1e-05, elementwise_affine=True)
        (dropout): Dropout(p=0.0, inplace=False)
        (mlp): Sequential(
          (0): LayerNorm((80,), eps=1e-05, elementwise_affine=True)
          (1): Linear(in_features=80, out_features=80, bias=True)
          (2): GELU(approximate='none')
          (3): Dropout(p=0.1, inplace=False)
          (4): Linear(in_features=80, out_features=80, bias=True)
          (5): Dropout(p=0.0, inplace=False)
        )
      )
      (10): RPETransformerLayer(
        (attention): MultiHeadAttentionLayer(
          (dropout): Dropout(p=0.1, inplace=False)
          (Q): Linear(in_features=80, out_features=80, bias=True)
          (K): Linear(in_features=80, out_features=80, bias=True)
          (V): Linear(in_features=80, out_features=80, bias=True)
          (fc_out): Linear(in_features=80, out_features=80, bias=True)
        )
        (add_bias_encoder): RPEEncoderLayer(
          (gbf): GaussianLayer(
            (means): Embedding(1, 16)
            (stds): Embedding(1, 16)
          )
          (mlp): NonLinear(
            (layer1): Linear(in_features=16, out_features=16, bias=True)
            (layer2): Linear(in_features=16, out_features=8, bias=True)
          )
        )
        (mult_bias_encoder): RPEEncoderLayer(
          (gbf): GaussianLayer(
            (means): Embedding(1, 16)
            (stds): Embedding(1, 16)
          )
          (mlp): NonLinear(
            (layer1): Linear(in_features=16, out_features=16, bias=True)
            (layer2): Linear(in_features=16, out_features=8, bias=True)
          )
        )
        (input_norm): LayerNorm((80,), eps=1e-05, elementwise_affine=True)
        (dropout): Dropout(p=0.0, inplace=False)
        (mlp): Sequential(
          (0): LayerNorm((80,), eps=1e-05, elementwise_affine=True)
          (1): Linear(in_features=80, out_features=80, bias=True)
          (2): GELU(approximate='none')
          (3): Dropout(p=0.1, inplace=False)
          (4): Linear(in_features=80, out_features=80, bias=True)
          (5): Dropout(p=0.0, inplace=False)
        )
      )
      (11): RPETransformerLayer(
        (attention): MultiHeadAttentionLayer(
          (dropout): Dropout(p=0.1, inplace=False)
          (Q): Linear(in_features=80, out_features=80, bias=True)
          (K): Linear(in_features=80, out_features=80, bias=True)
          (V): Linear(in_features=80, out_features=80, bias=True)
          (fc_out): Linear(in_features=80, out_features=80, bias=True)
        )
        (add_bias_encoder): RPEEncoderLayer(
          (gbf): GaussianLayer(
            (means): Embedding(1, 16)
            (stds): Embedding(1, 16)
          )
          (mlp): NonLinear(
            (layer1): Linear(in_features=16, out_features=16, bias=True)
            (layer2): Linear(in_features=16, out_features=8, bias=True)
          )
        )
        (mult_bias_encoder): RPEEncoderLayer(
          (gbf): GaussianLayer(
            (means): Embedding(1, 16)
            (stds): Embedding(1, 16)
          )
          (mlp): NonLinear(
            (layer1): Linear(in_features=16, out_features=16, bias=True)
            (layer2): Linear(in_features=16, out_features=8, bias=True)
          )
        )
        (input_norm): LayerNorm((80,), eps=1e-05, elementwise_affine=True)
        (dropout): Dropout(p=0.0, inplace=False)
        (mlp): Sequential(
          (0): LayerNorm((80,), eps=1e-05, elementwise_affine=True)
          (1): Linear(in_features=80, out_features=80, bias=True)
          (2): GELU(approximate='none')
          (3): Dropout(p=0.1, inplace=False)
          (4): Linear(in_features=80, out_features=80, bias=True)
          (5): Dropout(p=0.0, inplace=False)
        )
      )
      (12): RPETransformerLayer(
        (attention): MultiHeadAttentionLayer(
          (dropout): Dropout(p=0.1, inplace=False)
          (Q): Linear(in_features=80, out_features=80, bias=True)
          (K): Linear(in_features=80, out_features=80, bias=True)
          (V): Linear(in_features=80, out_features=80, bias=True)
          (fc_out): Linear(in_features=80, out_features=80, bias=True)
        )
        (add_bias_encoder): RPEEncoderLayer(
          (gbf): GaussianLayer(
            (means): Embedding(1, 16)
            (stds): Embedding(1, 16)
          )
          (mlp): NonLinear(
            (layer1): Linear(in_features=16, out_features=16, bias=True)
            (layer2): Linear(in_features=16, out_features=8, bias=True)
          )
        )
        (mult_bias_encoder): RPEEncoderLayer(
          (gbf): GaussianLayer(
            (means): Embedding(1, 16)
            (stds): Embedding(1, 16)
          )
          (mlp): NonLinear(
            (layer1): Linear(in_features=16, out_features=16, bias=True)
            (layer2): Linear(in_features=16, out_features=8, bias=True)
          )
        )
        (input_norm): LayerNorm((80,), eps=1e-05, elementwise_affine=True)
        (dropout): Dropout(p=0.0, inplace=False)
        (mlp): Sequential(
          (0): LayerNorm((80,), eps=1e-05, elementwise_affine=True)
          (1): Linear(in_features=80, out_features=80, bias=True)
          (2): GELU(approximate='none')
          (3): Dropout(p=0.1, inplace=False)
          (4): Linear(in_features=80, out_features=80, bias=True)
          (5): Dropout(p=0.0, inplace=False)
        )
      )
      (13): RPETransformerLayer(
        (attention): MultiHeadAttentionLayer(
          (dropout): Dropout(p=0.1, inplace=False)
          (Q): Linear(in_features=80, out_features=80, bias=True)
          (K): Linear(in_features=80, out_features=80, bias=True)
          (V): Linear(in_features=80, out_features=80, bias=True)
          (fc_out): Linear(in_features=80, out_features=80, bias=True)
        )
        (add_bias_encoder): RPEEncoderLayer(
          (gbf): GaussianLayer(
            (means): Embedding(1, 16)
            (stds): Embedding(1, 16)
          )
          (mlp): NonLinear(
            (layer1): Linear(in_features=16, out_features=16, bias=True)
            (layer2): Linear(in_features=16, out_features=8, bias=True)
          )
        )
        (mult_bias_encoder): RPEEncoderLayer(
          (gbf): GaussianLayer(
            (means): Embedding(1, 16)
            (stds): Embedding(1, 16)
          )
          (mlp): NonLinear(
            (layer1): Linear(in_features=16, out_features=16, bias=True)
            (layer2): Linear(in_features=16, out_features=8, bias=True)
          )
        )
        (input_norm): LayerNorm((80,), eps=1e-05, elementwise_affine=True)
        (dropout): Dropout(p=0.0, inplace=False)
        (mlp): Sequential(
          (0): LayerNorm((80,), eps=1e-05, elementwise_affine=True)
          (1): Linear(in_features=80, out_features=80, bias=True)
          (2): GELU(approximate='none')
          (3): Dropout(p=0.1, inplace=False)
          (4): Linear(in_features=80, out_features=80, bias=True)
          (5): Dropout(p=0.0, inplace=False)
        )
      )
    )
    (post_mp): GraphormerHead(
      (ln): LayerNorm((80,), eps=1e-05, elementwise_affine=True)
      (layers): Sequential(
        (0): Linear(in_features=80, out_features=1, bias=True)
      )
    )
  )
)
accelerator: cuda
benchmark: False
bn:
  eps: 1e-05
  mom: 0.1
cfg_dest: config.yaml
custom_metrics: []
dataset:
  cache_load: False
  cache_save: False
  dir: ./datasets
  edge_dim: 128
  edge_encoder: False
  edge_encoder_bn: False
  edge_encoder_name: TypeDictEdge
  edge_encoder_num_types: 4
  edge_message_ratio: 0.8
  edge_negative_sampling_ratio: 1.0
…
